Tensorflow Lite/tensorflow lite using andriod app/lesson_3_android_apps/fashion_mnist/app/src/main/assets/model.tflite (tflite, 258576 bytes, 8 tensors)

StatefulPartitionedCall/sequential/conv2d/Conv2D/ReadVariableOp f4 [1, 3, 3, 16]
00000000: fe33 a63e 6a54 673d f9ed 0abe 5bd9 4a3e
00000010: 4a37 f8bc a6c7 1b3e 142a 363e f982 f73e
00000020: d06a 8ebd 32d3 e5bd 721b 2fbe 2092 933e
00000030: e9bf a2be eb25 b23d 2bc0 9fbd f651 9ebe
00000040: f9c6 b13d b869 a23e d9d2 4a3e 7c2b f33e
00000050: ee21 bd3d 4385 df3e 5fd0 9d3e c2c3 22be
00000060: 2680 c33e 3947 a73e 2e70 fbbd f379 37be
00000070: c837 5bbe 4d03 683e 2872 c5bf eea8 7d3e
00000080: 1124 d3be 4f7c bdbe f1c8 093d 136f 823e
00000090: 0c5b 253e c0a6 70be 8b45 e5be 7e66 a6be
000000a0: e27e 283e f5c6 21be cccf c1bd 95a7 b13e
000000b0: c7ae fc3e f7f9 83be 61bc 9cbe 5120 83be
000000c0: f134 e53e aad3 12be 73c5 d1be f9c3 ab3d
000000d0: fe7c 33bf b6b3 cf3d 4d36 a2bc bf62 88bd
000000e0: 9235 a1bd 01b6 c9be 6ad7 07be c906 3a3e
000000f0: a459 31bd ac44 aabe 07fd ab3e 69d6 083e
00000100: 3c12 75be 2af1 7a3e d7f4 d8be f7eb 52be
00000110: be28 d9be a0df 96bb 52ff c63e 3971 9b3d
00000120: f191 283d 6016 9f3e dda1 40be 42a2 5cbe
00000130: 2257 b7bd 01fe 9b3e c461 fabe 547f a73e
00000140: 26c8 20be d09a dfbd 8bb0 ac3d dc5a e3be
00000150: 39b3 863e 7806 803d 9a6a 6fbe 9886 91bc
00000160: 0814 f4bd 390f 283e bc81 0dbd 3b15 8d3e
00000170: 2514 5cbf 3b53 9d3e f36e 21be d7e8 80be
00000180: e0a6 8d3e 0daf 0f3e 14fd 093f 5ed6 633e
00000190: 87f1 5abf 42eb c2be ce34 f5bd a556 c4be
000001a0: 16f8 203e c0a1 8cbe 324f 3fbe 910c b6bd
000001b0: 56e6 c43e 8506 15be be74 e33d 9ceb 0b3e
000001c0: 96b5 75be 55c4 fc3d b451 433e 44d8 c9be
000001d0: 9ff0 b2bf d926 bebe 3ed0 83bd a603 bebd
000001e0: 37cb e6bc 3d81 b3bc 5432 36bd 70d5 bdbe
000001f0: c6e2 373e ef15 9abe b613 573e 9356 473e
00000200: 5894 44bd efc5 94be c14f 89bd 1903 16bf
00000210: 7f0d a03d b404 793e 0cf5 003e 7fda e33e
00000220: 2033 153e 811b 523e 3a0b b7bd 2731 5ebe
00000230: 8c9d 22bf 2c15 973e c8a1 a13e 6b68 c7bc
0.32461542 0.056476988 -0.13567342 0.19809477 -0.030299801 0.15212879 0.17789489 0.48342112
-0.069539666 -0.11221923 -0.17100313 0.28822422 -0.3178704 0.086986385 -0.07800325 -0.30921906
0.08680529 0.31721282 0.19806994 0.47494113 0.09234987 0.43656358 0.30823037 -0.15894988
0.38183707 0.32671526 -0.12277256 -0.17917614 -0.21407998 0.22657509 -1.5425463 0.24771473
-0.41238454 -0.37008902 0.0336389 0.25475368 0.16148013 -0.2350111 -0.4477962 -0.3250007
0.16454652 -0.15798552 -0.09463462 0.34698167 0.49352095 -0.25776646 -0.30612472 -0.25610593
0.44766954 -0.14338556 -0.40970954 0.08386988 -0.701126 0.10141699 -0.019801283 -0.06659459
-0.07871546 -0.3939667 -0.13265768 0.18166651 -0.04329838 -0.33255517 0.33591482 0.13363041
-0.23932737 0.2450606 -0.42374298 -0.20597826 -0.42413896 -0.004604295 0.3886667 0.07589955
0.041154806 0.31071758 -0.18811746 -0.21546271 -0.08952166 0.30467227 -0.48902714 0.3271433
-0.1570135 -0.109182 0.084321104 -0.44405258 0.2630861 0.06251234 -0.23380509 -0.017764375
-0.11917883 0.16412057 -0.034547552 0.2755526 -0.8596824 0.30727562 -0.1576498 -0.25177643
0.27666378 0.1403162 0.5390179 0.22249743 -0.8552479 -0.38070112 -0.11972962 -0.38347355
0.15719637 -0.27467155 -0.18682554 -0.088891156 0.38456982 -0.14553268 0.11106251 0.13664097
-0.23995051 0.12342135 0.19074136 -0.3942281 -1.3979682 -0.37139013 -0.064362034 -0.0927804
-0.028173072 -0.021912212 -0.04448159 -0.37076902 0.17957601 -0.3009486 0.21003613 0.19466619
-0.047993034 -0.2905726 -0.06704665 -0.58598477 0.07815074 0.243182 0.12593478 0.44502637
0.14570284 0.20518304 -0.08937688 -0.21698438 -0.6352165 0.2950834 0.31568742 -0.024341783

StatefulPartitionedCall/sequential/conv2d/Conv2D_bias f4 [16]
00000000: facf 8ebc 8414 e0bb e64b 8c3b 9dbd 993c
00000010: 0dba 393e 09c9 643c 3e63 2dbc ae11 663c
00000020: 39f8 01be ca8b 2bbc 0000 0000 e56b 8cbc
00000030: e6b8 b53c 28dc abbd 031e d93d 270d 78bd
-0.017433155 -0.006838383 0.0042815087 0.018767172 0.18137379 0.013963946 -0.010582743 0.014042301
-0.12692346 -0.01047034 0.0 -0.017141292 0.022182893 -0.08391601 0.106014274 -0.060559418

StatefulPartitionedCall/sequential/conv2d_1/Conv2D/ReadVariableOp i1 [32, 3, 3, 16] scale=0.011803827 zero_point=0
00000000: c0d9 380b e4ee caee 0ae9 feeb 0bef 18ff
00000010: d1df 0bf0 f41e e7ec f805 f813 e0fd e006
00000020: 0209 dff4 f4fa 1104 ed02 07ef 260b f405
00000030: eae8 f718 eb1a 0b2a 0606 f90f ff05 07ff
00000040: e4f8 0508 c50b f401 03fb fefd 250c 0605
00000050: 1201 ecfe 09f7 10fe 02ef 00fe 16eb 0a04
00000060: e5f4 36f5 0728 0311 0706 f7fc 301f f4ea
00000070: f209 1aef f405 160d fbfc f907 060e 0af8
00000080: ed0a f9ef e3fd ef03 fef6 fcfd 1d08 01f0
00000090: 140b ece8 071a 280f 0cfc fb03 f30b fafd
000000a0: 0403 02e6 f7e9 f30f f2f5 f8d4 0bf4 2209
000000b0: e2eb 2110 fddb deec f6cd 01c7 27df 1ffe
000000c0: e7eb d6e8 182c 0705 0215 071c fe0f 00f2
000000d0: faf3 03ed f4f2 f3fa 0bf1 0300 f0f2 eafd
000000e0: fe01 fa0a e7f9 05e6 f6f5 02ee 03f2 feff
000000f0: fde3 070a 0521 f70c 0af8 ff1c f5fc f6f8
-0.75544494 -0.46034926 0.6610143 0.1298421 -0.33050716 -0.21246889 -0.63740665 -0.21246889
0.118038274 -0.27148804 -0.023607654 -0.24788037 0.1298421 -0.20066506 0.28329185 -0.011803827
-0.5547799 -0.3895263 0.1298421 -0.18886124 -0.14164592 0.35411483 -0.29509568 -0.23607655
-0.09443062 0.059019137 -0.09443062 0.22427271 -0.37772247 -0.03541148 -0.37772247 0.07082296
0.023607654 0.106234446 -0.3895263 -0.14164592 -0.14164592 -0.07082296 0.20066506 0.04721531
-0.22427271 0.023607654 0.08262679 -0.20066506 0.44854543 0.1298421 -0.14164592 0.059019137
-0.2596842 -0.28329185 -0.106234446 0.28329185 -0.24788037 0.30689952 0.1298421 0.49576074
0.07082296 0.07082296 -0.08262679 0.17705742 -0.011803827 0.059019137 0.08262679 -0.011803827
-0.33050716 -0.09443062 0.059019137 0.09443062 -0.6964258 0.1298421 -0.14164592 0.011803827
0.03541148 -0.059019137 -0.023607654 -0.03541148 0.43674162 0.14164592 0.07082296 0.059019137
0.21246889 0.011803827 -0.23607655 -0.023607654 0.106234446 -0.106234446 0.18886124 -0.023607654
0.023607654 -0.20066506 0.0 -0.023607654 0.2596842 -0.24788037 0.118038274 0.04721531
-0.31870332 -0.14164592 0.63740665 -0.1298421 0.08262679 0.4721531 0.03541148 0.20066506
0.08262679 0.07082296 -0.106234446 -0.04721531 0.5665837 0.36591864 -0.14164592 -0.2596842
-0.16525358 0.106234446 0.30689952 -0.20066506 -0.14164592 0.059019137 0.2596842 0.15344976
-0.059019137 -0.04721531 -0.08262679 0.08262679 0.07082296 0.16525358 0.118038274 -0.09443062
-0.22427271 0.118038274 -0.08262679 -0.20066506 -0.342311 -0.03541148 -0.20066506 0.03541148
-0.023607654 -0.118038274 -0.04721531 -0.03541148 0.342311 0.09443062 0.011803827 -0.18886124
0.23607655 0.1298421 -0.23607655 -0.28329185 0.08262679 0.30689952 0.4721531 0.17705742
0.14164592 -0.04721531 -0.059019137 0.03541148 -0.15344976 0.1298421 -0.07082296 -0.03541148
0.04721531 0.03541148 0.023607654 -0.30689952 -0.106234446 -0.27148804 -0.15344976 0.17705742
-0.16525358 -0.1298421 -0.09443062 -0.5193684 0.1298421 -0.14164592 0.4013301 0.106234446
-0.35411483 -0.24788037 0.3895263 0.18886124 -0.03541148 -0.43674162 -0.4013301 -0.23607655
-0.118038274 -0.60199517 0.011803827 -0.6728181 0.46034926 -0.3895263 0.36591864 -0.023607654
-0.29509568 -0.24788037 -0.49576074 -0.28329185 0.28329185 0.5193684 0.08262679 0.059019137
0.023607654 0.24788037 0.08262679 0.33050716 -0.023607654 0.17705742 0.0 -0.16525358
-0.07082296 -0.15344976 0.03541148 -0.22427271 -0.14164592 -0.16525358 -0.15344976 -0.07082296
0.1298421 -0.17705742 0.03541148 0.0 -0.18886124 -0.16525358 -0.2596842 -0.03541148
-0.023607654 0.011803827 -0.07082296 0.118038274 -0.29509568 -0.08262679 0.059019137 -0.30689952
-0.118038274 -0.1298421 0.023607654 -0.21246889 0.03541148 -0.16525358 -0.023607654 -0.011803827
-0.03541148 -0.342311 0.08262679 0.118038274 0.059019137 0.3895263 -0.106234446 0.14164592
0.118038274 -0.09443062 -0.011803827 0.33050716 -0.1298421 -0.04721531 -0.118038274 -0.09443062

StatefulPartitionedCall/sequential/conv2d_1/Conv2D_bias f4 [32]
00000000: 85fa df3d e261 373e 03e2 173e 453c 10bd
00000010: 5ebf 343b 7186 ad3e 848b c03d 15ae 6abd
00000020: 46e6 f63d f802 533d 19ab a93d 8645 9d3e
00000030: ba8a 0ebe fe38 d2bd 6c55 b1ba cd52 943d
00000040: 8acb 4ebe 2f33 0b3c 5e32 913c 9654 28be
00000050: 1cc4 273d 0f3f 1fbe ae69 bebc 597b f73d
00000060: c089 b63d 9949 993e 796f 943d d107 98bd
00000070: e25f 33bd 8526 923e d73e db39 82cf 413e
0.10936455 0.17908433 0.1483231 -0.035213728 0.0027579884 0.33891633 0.094016105 -0.057294924
0.1205564 0.051516503 0.082845874 0.30717105 -0.13920107 -0.10264777 -0.0013529486 0.072423555
-0.20194831 0.00849609 0.017724212 -0.16438517 0.04095851 -0.15551399 -0.023243751 0.120840736
0.089129925 0.29938963 0.07247824 -0.07423366 -0.043792613 0.28545013 0.00041817754 0.18926814

StatefulPartitionedCall/sequential/dense/MatMul/ReadVariableOp/transpose i1 [64, 3872] scale=0.0076406524 zero_point=0
00000000: fcfe 0104 fdfd 00fc fffc 0101 00fb 02fc
00000010: 03ff fc00 ffff fbff fffe 0400 fd01 fffb
00000020: 0200 00fe 0400 fc04 04fd fffc fbf6 fd01
00000030: fb04 00f8 fe03 fb00 ffff 00ff 02f9 fe03
00000040: ff04 ff01 00fd fef7 fbf9 fffd fafd fbf9
00000050: 0002 04fb 0301 04fb fdff fd00 fa00 00fe
00000060: f9fd 04fd 00ff 0403 04ff fcfb f804 fe01
00000070: feff 02fc fb03 f600 02ff 00fb fcfc ffff
00000080: fff8 fdfe fe04 fcfb 02fe ff02 f8fc fb03
00000090: f6ff 01fe 00fb fe03 fdfb fa03 fefd 02fe
000000a0: fefd fd01 0104 fb04 02fb f9fa fe00 ffff
000000b0: fafc 0102 fdfd fffe 02f9 02fe ff01 0102
000000c0: fffd f9fd f801 0203 fbf9 f8fe fafe fcfb
000000d0: fd01 ff01 fc01 00fc 0101 0200 ff00 fdfc
000000e0: 02fc fdfe f8fd 03fd 0302 fbfb 0002 fdf9
000000f0: 0200 fff9 fafc fd01 fb04 fbfa fe01 01fd
-0.03056261 -0.015281305 0.0076406524 0.03056261 -0.022921957 -0.022921957 0.0 -0.03056261
-0.0076406524 -0.03056261 0.0076406524 0.0076406524 0.0 -0.03820326 0.015281305 -0.03056261
0.022921957 -0.0076406524 -0.03056261 0.0 -0.0076406524 -0.0076406524 -0.03820326 -0.0076406524
-0.0076406524 -0.015281305 0.03056261 0.0 -0.022921957 0.0076406524 -0.0076406524 -0.03820326
0.015281305 0.0 0.0 -0.015281305 0.03056261 0.0 -0.03056261 0.03056261
0.03056261 -0.022921957 -0.0076406524 -0.03056261 -0.03820326 -0.07640652 -0.022921957 0.0076406524
-0.03820326 0.03056261 0.0 -0.06112522 -0.015281305 0.022921957 -0.03820326 0.0
-0.0076406524 -0.0076406524 0.0 -0.0076406524 0.015281305 -0.053484567 -0.015281305 0.022921957
-0.0076406524 0.03056261 -0.0076406524 0.0076406524 0.0 -0.022921957 -0.015281305 -0.06876587
-0.03820326 -0.053484567 -0.0076406524 -0.022921957 -0.045843914 -0.022921957 -0.03820326 -0.053484567
0.0 0.015281305 0.03056261 -0.03820326 0.022921957 0.0076406524 0.03056261 -0.03820326
-0.022921957 -0.0076406524 -0.022921957 0.0 -0.045843914 0.0 0.0 -0.015281305
-0.053484567 -0.022921957 0.03056261 -0.022921957 0.0 -0.0076406524 0.03056261 0.022921957
0.03056261 -0.0076406524 -0.03056261 -0.03820326 -0.06112522 0.03056261 -0.015281305 0.0076406524
-0.015281305 -0.0076406524 0.015281305 -0.03056261 -0.03820326 0.022921957 -0.07640652 0.0
0.015281305 -0.0076406524 0.0 -0.03820326 -0.03056261 -0.03056261 -0.0076406524 -0.0076406524
-0.0076406524 -0.06112522 -0.022921957 -0.015281305 -0.015281305 0.03056261 -0.03056261 -0.03820326
0.015281305 -0.015281305 -0.0076406524 0.015281305 -0.06112522 -0.03056261 -0.03820326 0.022921957
-0.07640652 -0.0076406524 0.0076406524 -0.015281305 0.0 -0.03820326 -0.015281305 0.022921957
-0.022921957 -0.03820326 -0.045843914 0.022921957 -0.015281305 -0.022921957 0.015281305 -0.015281305
-0.015281305 -0.022921957 -0.022921957 0.0076406524 0.0076406524 0.03056261 -0.03820326 0.03056261
0.015281305 -0.03820326 -0.053484567 -0.045843914 -0.015281305 0.0 -0.0076406524 -0.0076406524
-0.045843914 -0.03056261 0.0076406524 0.015281305 -0.022921957 -0.022921957 -0.0076406524 -0.015281305
0.015281305 -0.053484567 0.015281305 -0.015281305 -0.0076406524 0.0076406524 0.0076406524 0.015281305
-0.0076406524 -0.022921957 -0.053484567 -0.022921957 -0.06112522 0.0076406524 0.015281305 0.022921957
-0.03820326 -0.053484567 -0.06112522 -0.015281305 -0.045843914 -0.015281305 -0.03056261 -0.03820326
-0.022921957 0.0076406524 -0.0076406524 0.0076406524 -0.03056261 0.0076406524 0.0 -0.03056261
0.0076406524 0.0076406524 0.015281305 0.0 -0.0076406524 0.0 -0.022921957 -0.03056261
0.015281305 -0.03056261 -0.022921957 -0.015281305 -0.06112522 -0.022921957 0.022921957 -0.022921957
0.022921957 0.015281305 -0.03820326 -0.03820326 0.0 0.015281305 -0.022921957 -0.053484567
0.015281305 0.0 -0.0076406524 -0.053484567 -0.045843914 -0.03056261 -0.022921957 0.0076406524
-0.03820326 0.03056261 -0.03820326 -0.045843914 -0.015281305 0.0076406524 0.0076406524 -0.022921957

StatefulPartitionedCall/sequential/dense/MatMul_bias f4 [64]
00000000: b5de 18bd 5f83 cabb 7367 f0bc 1b4e 31bd
00000010: 41c0 c4bb 1c2e cbbb 5ed4 cf3d 6ee9 76bd
00000020: 4f1f a0bc a5bf 123b d2bb 13bd 405d 823d
00000030: dcfe 16bd 9636 8e3c b417 8fbd dd08 a5bc
00000040: 2a62 0bbd 56e2 b2bc cc75 44bd d70f 1b3e
00000050: e153 f73b 8bff 50bd 6520 33bc 9714 c0bb
00000060: b833 bd3c 7459 9dbd d2ce 173d aa41 40bd
00000070: a4fb c43d c0c9 373c debb 1f3e e122 043e
00000080: a4a2 b6bc 0ec8 c8bc f908 52bd b4fb 763d
00000090: 9661 14bc 5671 803d fbb0 99bd 4205 17bd
000000a0: 613c bb3d 9691 55bd 4261 24bc 594f 833d
000000b0: e972 64bb 5f97 373d 52f5 2abd 86f3 78bd
000000c0: 36e4 83bc a726 4f3d 4365 f3bb 1f47 f7bd
000000d0: 3836 77bd d936 5c3d 792d fbbb d7b8 c4bb
000000e0: eaf1 c83d e0bb e73b f3e6 06bd 58d7 fcbc
000000f0: 0dc1 c4bb 4a05 91bc 34e2 14bc 0bbf 51ba
-0.037321765 -0.0061802114 -0.029346203 -0.043287378 -0.0060043638 -0.006200565 0.10147928 -0.06028121
-0.01954618 0.002239206 -0.03606779 0.06365442 -0.036864147 0.017360013 -0.06986943 -0.020145828
-0.034029163 -0.021836441 -0.047963902 0.15142761 0.007547841 -0.051024955 -0.010933016 -0.0058618295
0.02309595 -0.076830775 0.037062474 -0.046937622 0.09618309 0.011217535 0.1559901 0.1290393
-0.02229435 -0.024509456 -0.05127809 0.060298637 -0.009056469 0.06271617 -0.075044595 -0.03687025
0.09142376 -0.052140795 -0.010032954 0.06411619 -0.003485853 0.044822093 -0.041737862 -0.060779117
-0.01610003 0.05057397 -0.007427843 -0.12074112 -0.06035444 0.053763244 -0.007665333 -0.00600348
0.098117664 0.007071957 -0.032935094 -0.030864403 -0.0060044588 -0.017702717 -0.009087134 -0.0008001185

StatefulPartitionedCall/sequential/dense_1/MatMul/ReadVariableOp/transpose f4 [10, 64]
00000000: e262 463e 9ad7 15bd 982e c2ba 5221 3abe
00000010: a179 dabd 85ea 10bf 98c6 193d 9b5a a8bd
00000020: 03f1 0d3e c0df cd3d 710a b63d fb3d 953e
00000030: 20e3 813e 4083 4bbf 738f 3ebe 325c 83bc
00000040: 8088 a63d 827c 30bf 3f62 38bd a9cd 8ebe
00000050: 0010 bb3d df10 543e 8e52 afbd 9280 e4bd
00000060: ba3e c53e 8fa6 243e 5c46 42bf 915a fdbe
00000070: c5d5 d83d b939 883e 21c4 8b3e 6dc5 3dbe
00000080: 75a0 dd3d 142b 853e 6361 563d d2bd a6be
00000090: 2566 88be da5b 2f3e a815 2e3d c828 013e
000000a0: edb3 493d 5ed4 763e 1e77 6ebe 092d 403e
000000b0: 1380 473e da3b b7be 1d24 1e3e 5b77 e1be
000000c0: 64c4 273f 26dd f0be 1e52 373e 1292 74be
000000d0: 67fa 393e 019c b2be 9bb7 0dbd c11d 123e
000000e0: 8176 fcbe 3ab1 5cbf af96 823e 815f 953c
000000f0: 11c6 a9bd b3de e5bb 4acc 683e dd15 ed3e
00000100: 81ce 3e3c 01e4 fe3c 2adc 39bf c375 d1bd
00000110: 8422 523e 8ecf 5dbe 0528 da3e 2b9e 8c3e
00000120: 1d31 84be c296 bf3e 5f61 6ebe 322a b8bc
00000130: d8a7 92bc db11 6dbe ee1f 96be 701d 08be
00000140: 81ee ecbd 5ac6 ff3d 3ec5 f13e 8143 27bf
00000150: 6fb2 933e a2fb 72bf 6f64 25bf c69e b7bc
00000160: 9d1c 47be 393d 3abe ea94 203e dc66 b23e
00000170: db5a af3e fba1 863d 2e09 45be d812 c93e
00000180: f58b 1d3d f280 d6be 19b6 92be d935 c13e
00000190: 3702 003d 53f9 2ebf 14a5 c4be b5c0 78be
000001a0: 2a53 953e 9141 92bd 0119 d13c 10e6 713e
000001b0: 4acd 1c3f 1f30 1ebf e362 9abe d4bd 13bf
000001c0: 1dbb 543f 20cc 1bbf 5725 073e 0bac 9bbd
000001d0: 8d60 9bbd b7e7 e43e 6eb8 0a3e c244 243e
000001e0: f60c 34bf 79fb 153e 8bd3 6f3e a8e2 31be
000001f0: 2635 643e f7aa 833d 0210 1cbe a656 bfbe
00000200: 8e4c 77be 1f91 c0bd 112c f93d a757 363d
00000210: 8683 0a3e c99d 0abe ba1d 493e c0ce ff3d
00000220: a4b1 40be 0538 1abc b42d 4ebc f45a 343e
00000230: e0d6 8b3e 99e1 8d3e fb31 bf3d b23a 87be
00000240: 0764 0f3e 4e7d 213d f732 263e 75a9 1e3e
00000250: 9199 53bd bb9c a2bc dad0 2dbd 5a0a 3cbd
00000260: 59e3 9f3e e5e4 cebe 307d b93e 1c86 cdbe
00000270: f30e 48bf 36d9 87bc c0a2 0a3e 56d9 a2be
00000280: 6c87 2bbd f066 60be 98db e0be 8a05 05bf
00000290: b49a 893e 4832 2a3e 4950 c33e fede 1cbe
000002a0: af65 08bd 7490 88be 8864 76be 32fc 523e
000002b0: fdde 8f3e 1457 7c3e 725d a0be d84f 2b3e
000002c0: d072 403e 5278 cbbd 1998 603e c1cf 4cbe
000002d0: 0845 5f3e 6af5 debe 57d4 5fbe e682 d23d
000002e0: 3a91 d9be 7601 64be 19e7 8d3e 0b14 13be
000002f0: 45a2 d33d 3a4b e5bc e77f 273e 6744 c6be
00000300: d0d5 0f3e e022 803e 775d d4be 0a1e e33e
00000310: 9f81 6e3e bd23 0abd b452 1cbf f007 a63e
00000320: ad27 323e bae4 8d3d ded8 833e a1a4 873e
00000330: 8527 a13e 4db0 e1bd 4656 12be f6fe aebd
00000340: 179f 15bd 8215 2cbf 63b0 adbe 337e 4e3e
00000350: 62f9 eebe 3457 c23d 4e54 68bc 18b8 e93d
00000360: 8349 5abf 452c 37be 0995 4c3e a46f 3cbe
00000370: ba13 e93d 7957 24bf 280d 933e c481 333e
00000380: a8f2 5ebd 349e 52be 5676 01be 117f be3e
00000390: 08bf 023e 7568 be3e 5e3d 423e ac2c 733e
000003a0: 3231 d53d 255b 583e d394 64bd 3b1d 01bf
000003b0: 57c1 65be ed9a 83be 7fb3 193e e536 8cbe
000003c0: e3b2 8fbe 14a3 fb3d 4f9b c33d f34d 443d
000003d0: e5a2 0fbe 5f75 f13d 643e 5ebe fd45 1e3e
000003e0: 52d5 90bd d953 8f3d b29f 4ebe 68da 6fbe
000003f0: 1672 01be 2325 0bbe 4581 87be 4f04 9fbe
0.19373658 -0.036582567 -0.0014814911 -0.18176773 -0.1066773 -0.5660785 0.03754291 -0.082204066
0.1386147 0.100524426 0.0888871 0.2914885 0.25368595 -0.79497147 -0.18609409 -0.016035173
0.08131504 -0.68939984 -0.04501557 -0.2789128 0.09133911 0.20709561 -0.08560668 -0.11157335
0.3852442 0.16079162 -0.7588861 -0.4948316 0.10587648 0.2660654 0.27298072 -0.18532343
0.108216204 0.26009429 0.05233897 -0.32566696 -0.2664043 0.17124882 0.04250112 0.12613213
0.049243856 0.24104449 -0.23287627 0.1876718 0.1948245 -0.3578785 0.15443464 -0.44036373
0.65534043 -0.47043723 0.17902419 -0.23883846 0.18161927 -0.34884647 -0.034598928 0.14269163
-0.4930916 -0.86207926 0.25505587 0.018234016 -0.08289731 -0.007015073 0.2273418 0.46305743
0.011645914 0.03111458 -0.7260157 -0.102275394 0.20520979 -0.21661207 0.42608657 0.27464423
-0.2581872 0.37419707 -0.23279332 -0.022481058 -0.0179023 -0.23151343 -0.29321235 -0.1329248
-0.115689285 0.124890044 0.47220796 -0.6533738 0.28847072 -0.9491521 -0.64606375 -0.022414576
-0.19444509 -0.18187417 0.15681806 0.348441 0.34249005 0.06573864 -0.19241783 0.3927219
0.03846355 -0.41895252 -0.28654554 0.37736395 0.031252112 -0.6834919 -0.38407195 -0.24292262
0.29165012 -0.07141412 0.025524618 0.23622918 0.61250746 -0.61792177 -0.3015357 -0.5771153
0.8309801 -0.60858345 0.13197838 -0.07601174 -0.07586775 0.44708034 0.13546917 0.16041854
-0.70332277 0.1464671 0.23420541 -0.17371619 0.222859 0.06429093 -0.15240481 -0.37370795
-0.24150297 -0.0940268 0.12166608 0.044517186 0.13526735 -0.13536753 0.19640246 0.12490606
-0.18817765 -0.00941277 -0.012584139 0.17612821 0.27312374 0.2771118 0.09335705 -0.26411968
0.14003001 0.03942614 0.16230379 0.1549433 -0.051660124 -0.019850126 -0.042435504 -0.04590831
0.3122814 -0.40409008 0.36228323 -0.4014138 -0.7814781 -0.016583066 0.13538647 -0.3180644
-0.041877195 -0.21914268 -0.43917537 -0.51961577 0.26875842 0.16620743 0.3814719 -0.1531944
-0.033300098 -0.2667271 -0.24061787 0.20604017 0.28099814 0.24642593 -0.31321293 0.16729677
0.18793797 -0.09935059 0.2193302 -0.20001127 0.21803677 -0.4354661 -0.21858345 0.10278873
-0.42493612 -0.22266182 0.27715376 -0.14363115 0.10333685 -0.027989972 0.16357385 -0.38724062
0.14046407 0.25026608 -0.41477558 0.44358855 0.23291634 -0.03372549 -0.61063695 0.3242793
0.17397948 0.06928392 0.25751394 0.2649279 0.31475464 -0.11019955 -0.14290723 -0.08544724
-0.036528673 -0.6722032 -0.33923635 0.20165329 -0.4667464 0.09489289 -0.014180256 0.11412066
-0.8526842 -0.17887981 0.19978727 -0.18401963 0.11380716 -0.6419597 0.28720975 0.1752997
-0.054430634 -0.20568162 -0.12642798 0.3720632 0.12768185 0.3718907 0.18968722 0.2374751
0.10409774 0.21128519 -0.055805992 -0.5043523 -0.22437035 -0.25704136 0.15009879 -0.2738563
-0.28066167 0.12286964 0.09551107 0.0479259 -0.14026983 0.11789965 -0.21703488 0.15456386
-0.070719376 0.069984145 -0.20178106 -0.23423159 -0.12641177 -0.13588385 -0.26465812 -0.31057975

StatefulPartitionedCall/sequential/dense_1/MatMul_bias f4 [10]
00000000: 5de9 39bd fa20 e0bd e0fe 0dbc a189 b03d
00000010: 6c1a 16be f49c 05be a210 c73d 0b87 f33d
00000020: 9ce0 c13d 5ce8 db3b
-0.04538857 -0.1094379 -0.008666724 0.08620001 -0.14658517 -0.13048154 0.09719969 0.11890992
0.09466669 0.006711049
